Backend/chatbot/data.pth (torch, 5975 bytes, 6 tensors)

l1.weight f4 [8, 73]
-0.34779647 -0.039076872 0.38374096 0.24639437 -0.2187258 -0.025192168 0.6396963 -0.25249672
0.5769082 -0.23894791 0.28866673 -0.4055913 -0.26394948 0.23271054 0.37352335 0.57927185
-0.27342495 -0.1976447 -0.23904523 0.64373827 0.4927094 0.2374793 -0.4056256 0.024489041
0.25812116 -0.11945807 0.17694905 0.33302507 0.44390392 0.7382146 0.37084362 0.3088185
-0.55079967 0.4291828 0.33987567 0.3218844 0.14368223 -0.33738226 0.026846258 0.055824094
0.13535978 -0.27319705 0.10361471 -0.2777 0.62386835 0.6319001 0.2931939 -0.26572254
-0.12477736 0.3159452 -0.27487546 -0.107536964 0.46435922 -0.059611063 -0.26039177 0.51435935
0.2073891 -0.30971602 -0.56415313 0.061857693 0.32235947 0.13390735 0.11452799 0.39435947
-0.16240898 0.39827394 0.35619697 0.43801373 0.27846083 0.68607235 -0.13591604 0.20670785
0.20161346 -0.012252469 0.23471434 0.43311262 -0.5497848 0.39528325 0.76322186 0.8932203
0.21083023 0.25886297 0.3121015 0.41525117 -0.025183327 0.12881146 0.803616 -0.49777257
0.3441848 0.29368693 0.24494079 0.21278128 0.50466317 0.42465365 0.73461324 -0.0054981024
0.34342554 1.0651145 -0.05596207 0.044666786 1.1273038 1.0601058 0.47194928 0.09099694
-0.05506116 0.5841893 0.5311043 -0.040979475 0.53242356 -0.07329689 0.1844464 0.41574785
0.07665819 -0.16363823 0.16815388 0.25513434 0.40958694 0.4050236 0.5461247 0.2439253
0.5668481 0.1354728 -0.3075184 0.16662592 0.1517382 0.42710146 0.12415875 0.2759903
0.23965514 0.13503668 0.5863914 -0.5119268 -0.12848784 0.41500038 0.54519683 0.39191717
0.3010358 0.18742481 0.27622238 -0.0810842 0.57085896 0.43385395 0.31478068 0.15053992
0.24232815 0.30723044 -0.076329686 0.050696768 0.531304 -0.17877202 0.4908309 0.005663588
0.06607709 0.17572649 0.63843983 0.32407224 -0.08786007 -0.5722778 0.014960104 0.36600795
-0.13422827 -0.044721667 1.1041484 0.7644091 0.39277276 0.6194268 0.0031594376 0.27237773
-0.57162803 -0.11327692 0.49646097 -0.05531088 -0.3913531 0.5451185 0.40939182 -0.039580848
0.046237458 0.23571129 0.728669 -0.1826534 0.04224323 0.38532975 0.14046368 -0.38855985
0.028468238 0.21598098 0.25450578 0.4326107 0.48051924 0.40109944 0.12577258 -0.48716483
0.26143152 0.58051646 0.5242178 -0.2245777 -0.2982312 0.96932435 0.35038185 0.28872722
0.64700764 0.22781989 0.15343842 0.4483275 -0.26104987 -0.051123098 0.123878226 0.09631168
0.85639817 0.2836539 0.25840372 -0.14027975 0.110652424 0.30060658 0.8736062 0.63127536
0.68790174 0.114960425 0.48632786 0.8729891 0.521719 -0.3397772 -0.49051395 0.39229193
0.44060785 0.23535328 0.114096366 -0.34460163 0.22947389 -0.35191658 0.36287892 -0.19826378
0.5991451 -0.5309488 -0.55605066 0.41768003 0.5065917 0.3854442 -0.20906325 -0.4596869
0.5131203 0.41256353 -0.0037139605 0.7921759 0.84003764 -0.41509923 0.79726696 0.94030124
-0.018249854 -0.19815977 -0.24436393 0.38344327 -0.419861 -0.29114404 0.438165 -0.2333796
00000000: 6112 b2be 120f 20bd b279 c43e ce4e 7c3e
00000010: a8f9 5fbe ce5f cebc 23c3 233f 4047 81be
00000020: 41b0 133f c3ae 74be 20cc 933e aaa9 cfbe
00000030: 6324 87be ac4b 6e3e 743e bf3e 294b 143f
00000040: 5bfe 8bbe 5f63 4abe 46c8 74be 08cc 243f
00000050: 6844 fc3e c62d 733e 29ae cfbe 3e9d c83c
00000060: 7528 843e 6fa6 f4bd 2232 353e 4382 aa3e
00000070: 6047 e33e a2fb 3c3f 37df bd3e 751d 9e3e
00000080: 3501 0dbf d9bd db3e 2f04 ae3e 08ce a43e
00000090: 6f21 133e 5ebd acbe afec db3c cea7 643d
000000a0: c19b 0a3e 7ce0 8bbe f333 d43d b22e 8ebe
000000b0: d6b5 1f3f 34c4 213f 831d 963e c90c 88be
000000c0: 468b ffbd 92c3 a13e 7abc 8cbe 573c dcbd
000000d0: 7ec0 ed3e bb2a 74bd 1252 85be 0ead 033f
000000e0: cf5d 543e 1993 9ebe 576c 10bf 7e5e 7d3d
000000f0: 4d0c a53e 021f 093e a78d ea3d 7ce9 c93e
00000100: 8a4e 26be 90ea cb3e 735f b63e 5643 e03e
00000110: 6b92 8e3e 70a2 2f3f 932d 0bbe 39ab 533e
00000120: c273 4e3e 94be 48bc f558 703e f0c0 dd3e
00000130: b2be 0cbf 9162 ca3e 8262 433f 16aa 643f
00000140: e1e3 573e b089 843e c5cb 9f3e cd9b d43e
00000150: 444d cebc 27e7 033e c7b9 4d3f 0cdc febe
00000160: fd38 b03e 225e 963e c2d1 7a3e 56e3 593e
00000170: 9b31 013f 346c d93e 9d0f 3c3f 6d29 b4bb
00000180: 79d5 af3e ac55 883f 7c38 65bd 85f4 363d
00000190: 7e4b 903f 8cb1 873f 56a3 f13e 9b5c ba3d
000001a0: d087 61bd 6e8d 153f 74f6 073f 18da 27bd
000001b0: e94c 083f ae1c 96bd 84df 3c3e e7dc d43e
000001c0: f8fe 9c3d c890 27be 8830 2c3e f8a0 823e
000001d0: 61b5 d13e 415f cf3e d4ce 0b3f 8ec7 793e
000001e0: f51c 113f 62b9 0a3e 0d73 9dbe fc9f 2a3e
000001f0: 4261 1b3e 0bad da3e f146 fe3d 9a4e 8d3e
00000200: 2868 753e 0e47 0a3e bf1d 163f a20d 03bf
00000210: 5192 03be ee7a d43e 0592 0b3f 5ea9 c83e
00000220: 5d21 9a3e 4aec 3f3e 056d 8d3e 790f a6bd
00000230: d023 123f 1b22 de3e ef2a a13e 2327 1a3e
00000240: df24 783e 4f4d 9d3e bd52 9cbd 6aa7 4f3d
00000250: 8a03 083f 0310 37be 304e fb3e 9f95 b93b
00000260: 6d53 873d a5f1 333e cb70 233f ccec a53e
00000270: fbef b3bd cc80 12bf 391b 753c 6565 bb3e
00000280: 2373 09be 112e 37bd bc54 8d3f 51b0 433f
00000290: 8319 c93e c192 1e3f 910e 4f3b 1875 8b3e
000002a0: 3756 12bf bbfd e7bd 2230 fe3e a98d 62bd
000002b0: 6f5f c8be e38c 0b3f ce9b d13e 871f 22bd
000002c0: 7d63 3d3d 4d5e 713e 0d8a 3a3f 7e09 3bbe
000002d0: 3d07 2d3d f149 c53e b6d5 0f3e 51f1 c6be
000002e0: 3936 e93c 1e2a 5d3e 954e 823e 267f dd3e
000002f0: 9e06 f63e e85c cd3e 87ca 003e ab6d f9be
00000300: 5ada 853e ba9c 143f 2333 063f b2f7 65be
00000310: c3b1 98be a425 783f 4065 b33e 0ed4 933e
00000320: 4ba2 253f 9e49 693e f61e 1d3e 2f8b e53e
00000330: 54a8 85be 7466 51bd deb3 fd3d 0f3f c53d
00000340: e93c 5b3f 153b 913e 7e4d 843e 7fa5 0fbe
00000350: bd9d e23d 1be9 993e a8a4 5f3f 439b 213f
00000360: 541a 303f 5f70 eb3d f7ff f83e 377c 5f3f
00000370: 608f 053f 47f7 adbe a524 fbbe 7dda c83e
00000380: 5a97 e13e 7300 713e 5bab e93d a06f b0be
00000390: 34fb 6a3e 692e b4be 44cb b93e a905 4bbe
000003a0: 9361 193f 43ec 07bf 5659 0ebf 28da d53e
000003b0: feaf 013f f158 c53e ad14 56be 155c ebbe
000003c0: da5b 033f 873b d33e eb65 73bb 0acc 4a3f
000003d0: b50c 573f e387 d4be b019 4c3f 95b7 703f
000003e0: b880 95bc 65ea 4abe 8a3a 7abe ad52 c43e
000003f0: 05f8 d6be d510 95be 2a57 e03e 10fb 6ebe

l1.bias f4 [8]
0.40559727 1.2462337 0.57158613 1.5471499 0.51196235 0.4062181 1.1588846 0.3666283
00000000: 72aa cf3e 9684 9f3f 7853 123f 0209 c63f
00000010: f70f 033f d2fb cf3e 5556 943f b4b6 bb3e

l2.weight f4 [8, 8]
-0.06671058 0.38331068 0.35461113 -0.6440353 0.99804556 0.48576972 0.956074 -1.3173
0.7020753 1.4876099 1.4627122 0.35095122 -0.5531974 0.25701308 -1.2094535 -0.002171822
0.9056441 -0.06711026 0.21505396 -0.9077556 1.1290165 0.9361162 0.014758864 1.1621603
-0.044118714 -0.2267702 0.94838005 0.7274776 1.6716934 1.4730755 -0.4381234 1.4053999
0.44148347 1.6575218 -0.8639537 1.5301231 -0.40870592 -1.0452616 1.5990714 -0.9751883
0.19030641 -0.39887148 -0.29372048 -0.21082883 0.15701002 -0.047500756 -0.20925443 0.17862174
0.68732584 0.5161652 0.7867134 -0.61755276 -0.9209204 1.0465715 -1.0261525 -0.884257
-0.8847591 0.44583923 0.631634 1.7017671 0.6174693 -0.12865327 -0.13894288 -0.75018
00000000: 8e9f 88bd 4c41 c43e 978f b53e 7fdf 24bf
00000010: ea7f 7f3f cfb6 f83e 44c1 743f 499d a8bf
00000020: 35bb 333f 006a be3f 273a bb3f e1af b33e
00000030: 589e 0dbf 3897 833e 5fcf 9abf 2055 0ebb
00000040: 4bd8 673f 1b71 89bd 1b37 5c3e ac62 68bf
00000050: 9d83 903f 50a5 6f3f 2acf 713c abc1 943f
00000060: d3b5 34bd 7336 68be 09c9 723f f93b 3a3f
00000070: 0dfa d53f bd8d bc3f b651 e0be 25e4 b33f
00000080: 1f0a e23e ad29 d43f 122c 5dbf 13db c33f
00000090: e741 d1be 22cb 85bf 5fae cc3f f1a5 79bf
000000a0: afdf 423e e238 ccbe 8862 96be 83e3 57be
000000b0: 3cc7 203e 2790 42bd cb46 56be 9ee8 363e
000000c0: 96f4 2f3f 6723 043f 0d66 493f f017 1ebf
000000d0: 70c1 6bbf 0ef6 853f f758 83bf ab5e 62bf
000000e0: 937f 62bf 0a45 e43e c4b2 213f 81d3 d93f
000000f0: 7812 1e3f afbd 03be 0b47 0ebe cc0b 40bf

l2.bias f4 [8]
-0.3042635 0.28534156 -0.45137757 -0.16317783 1.2851468 -0.26598966 -0.05981082 0.7295399
00000000: 6dc8 9bbe 4a18 923e f61a e7be 1718 27be
00000010: b17f a43f cc2f 88be 31fc 74bd 20c3 3a3f

l3.weight f4 [9, 8]
-0.7409693 0.503241 0.25911576 0.5067979 -1.1804091 0.05170862 -0.14304836 -0.89709884
0.89972126 -1.336503 0.7309754 0.57471466 -0.8432215 -0.17333208 -0.61256015 -0.859106
-1.1062922 -2.51391 -0.89998794 -1.5658481 0.81999546 -0.03040759 -0.22598459 0.74732614
-2.5109594 0.5915678 -0.18367565 -0.4780525 0.20822352 -0.2561437 -1.8827195 0.36235327
0.84222615 0.015330691 -0.012033954 0.04539665 -0.88228965 -0.053067684 -0.9998421 0.2830466
0.4138063 0.42333466 -0.27524275 -0.4273405 -0.19901924 0.11340692 0.704363 -1.1902934
0.76572907 -1.3391545 -0.4391676 -0.88278663 0.59915733 -0.24170291 -0.3201432 -1.6625181
-1.2688637 -1.8954681 -0.7107066 0.90340316 -0.0721016 -0.03367052 -0.15671143 0.5766147
-1.1414045 0.29386044 -1.1761776 0.19722997 -0.9092483 -0.091400996 0.59118575 0.47566262
00000000: 2ab0 3dbf 67d4 003f d2aa 843e 82bd 013f
00000010: a517 97bf 6bcc 533d 457b 12be 45a8 65bf
00000020: 2254 663f 8812 abbf 3421 3b3f 8020 133f
00000030: 5ddd 57bf f77d 31be bed0 1cbf 5fee 5bbf
00000040: fc9a 8dbf e7e3 20c0 9c65 66bf b66d c8bf
00000050: 39eb 513f 5719 f9bc 8168 67be c450 3f3f
00000060: 8fb3 20c0 fd70 173f 7815 3cbe 4cc3 f4be
00000070: 8c38 553e 4425 83be f4fc f0bf 5e86 b93e
00000080: 229c 573f 942d 7b3c 102a 45bc d6f1 393d
00000090: bcdd 61bf 805d 59bd a7f5 7fbf 7ceb 903e
000000a0: 6bde d33e 52bf d83e 9eec 8cbe 60cc dabe
000000b0: b3cb 4bbe e341 e83d 2251 343f 895b 98bf
000000c0: d206 443f 6a69 abbf 93da e0be 4efe 61bf
000000d0: 6062 193f f880 77be cfe9 a3be 65cd d4bf
000000e0: 206a a2bf b39e f2bf def0 35bf 6e45 673f
000000f0: 01aa 93bd 19ea 09bd f678 20be 059d 133f
00000100: 8b19 92bf e074 963e fd8c 96bf a7f6 493e
00000110: 7fc4 68bf 7230 bbbd f357 173f 0d8a f33e

l3.bias f4 [9]
-0.54287636 0.27942997 0.61054844 -0.051974982 -0.51007533 -0.14049491 0.45778957 -0.057812054
-0.5579786
00000000: f2f9 0abf 7211 8f3e e74c 1c3f b8e3 54bd
00000010: 4c94 02bf e6dd 0fbe 6563 ea3e 55cc 6cbd
00000020: afd7 0ebf
